Casa-IoT-keras/initial_model/initial_model.npz (npz, 254222 bytes, 13 tensors)

0 f4 [36, 400]
0	0xbd9043f8	-0.07044214
1	0xbd40dd38	-0.04708597
2	0x3d3f11b6	0.04664775
3	0x3db6dff7	0.08929437
4	0x3db5304f	0.08847105
5	0x3db4bb9d	0.08824847
6	0x3d254bde	0.040355556
7	0xbdbc830f	-0.09204685
8	0x3ce2c1fc	0.02768039
9	0x3dd68491	0.10474504
10	0x3c0a0898	0.0084249005
11	0xbd0c7028	-0.034286648
12	0xbde813c5	-0.11331896
13	0xbdbffaea	-0.0937403
14	0xbce65780	-0.028117895
15	0xbd8b996c	-0.06816372
16	0xbdd5aa71	-0.104329
17	0xbcd83e98	-0.026397035
18	0x3dc58a41	0.096455105
19	0xbd934e82	-0.071927086
20	0xbd77a0ca	-0.060456075
21	0x3d17d99a	0.037072755
22	0x3d6ec53a	0.05829356
23	0xbcfc6bd0	-0.030813128
24	0x3dc2c719	0.09510631
25	0x3cec50ec	0.02884718
26	0xbd9c656c	-0.07636532
27	0x3d1c281a	0.03812418
28	0xbdea1f21	-0.114317186
29	0xbd589db6	-0.05288478
30	0x3cdd9c4c	0.027052067
31	0x3bbcf170	0.0057660863
32	0xbd2a3464	-0.04155387
33	0x3d72d7a6	0.05928769
34	0xbd8e61a2	-0.06952216
35	0xbd1c44fc	-0.038151726
36	0xbb02e800	-0.0019974709
37	0x3de08309	0.10962493
38	0x3dcb0095	0.099122204
39	0x3b824e50	0.0039766207
40	0x3dd8faff	0.10594749
41	0xbccae028	-0.02476509
42	0xbdc60d7f	-0.09670543
43	0x3db1f5ad	0.08689437
44	0xbdb67e34	-0.0891079
45	0x3b22ec20	0.002485998
46	0xb9f3d000	-0.00046503544
47	0x3c8f86dc	0.01752036
48	0x3cbe61e4	0.023240037
49	0x3d70643e	0.05868935
50	0x3c87bee4	0.016570516
51	0xbd8f1c95	-0.069878735
52	0x3d7bbaf2	0.06145758
53	0xbce2ab54	-0.027669586
54	0x3d963b5d	0.073355414
55	0xbd69cdfb	-0.057081204
56	0x3d3a2dea	0.045453943
57	0xbd29da4c	-0.04146795
58	0x3d2a4ace	0.041575246
59	0xbd90192e	-0.07036053
60	0xbcdcfc2c	-0.026975714
61	0xbd69cc04	-0.05707933
62	0xbc6ce8a8	-0.014459766
63	0x3b8e5c00	0.0043444633
64	0xbdb1484b	-0.08656367
65	0x3cc59304	0.024117954
66	0xbd65d49e	-0.05611097
67	0x3deaf10d	0.11471758
68	0xbdcc3359	-0.09970731
69	0xbcad5984	-0.021160848
70	0xbd82867a	-0.063733056
71	0x3d214c66	0.0393795
72	0x3cf0408c	0.029327653
73	0xbd1b84dc	-0.0379685
74	0x3d895213	0.067051075
75	0x3de0f30d	0.10983858
76	0xbd9239c6	-0.07139926
77	0xbd19f3aa	-0.03758589
78	0xbda90a96	-0.08253972
79	0x3db5bbef	0.08873736
80	0xbde3fd10	-0.11132252
81	0xbbcc0830	-0.006226562
82	0xbd2ddca2	-0.04244674
83	0x3dbe4fd5	0.092925705
84	0x3dec42a7	0.115361504
85	0x3dca944b	0.09891566
86	0xbd14b8ee	-0.036309175
87	0x3d9605d7	0.073253326
88	0xbd655a69	-0.055994425
89	0x3c0c72d8	0.008572303
90	0x3c7078a8	0.014677204
91	0xbcc1584c	-0.023601674
92	0x3dc77f1b	0.0974104
93	0x3d884589	0.06653888
94	0x3dd9b55d	0.106302954
95	0x3d19cbee	0.037547998
96	0xbdaa4fdb	-0.083160125
97	0x3d0d3022	0.03446973
98	0xbd5f8806	-0.05457308
99	0x3d25c1d2	0.040468045
100	0xbd63ee31	-0.05564708
101	0xbd5414c2	-0.05177761
102	0x3da1501f	0.0787661
103	0x3db68d43	0.08913662
104	0x3dabd4f5	0.08390228
105	0x3dbb7051	0.09152282
106	0x3d02f1e2	0.03196896
107	0x3ddeabd5	0.10872618
108	0xbde6ab1a	-0.11263104
109	0xbcf47c70	-0.029844493
110	0x3d647dba	0.055783965
111	0xbdd1df49	-0.102476664
112	0xbddb5fa6	-0.10711603
113	0x3b949060	0.0045338124
114	0x3d506bde	0.05088412
115	0xbddc3f81	-0.107543
116	0x3dcad345	0.09903578
117	0x3db20103	0.08691599
118	0xbceee5c8	-0.029162303
119	0x3c6d6868	0.014490224
120	0x3d9b5773	0.07585039
121	0x3d65c666	0.05609741
122	0xbc8087d8	-0.015689775
123	0xbdeff3a0	-0.1171639
124	0x3d3d9e4a	0.046293534
125	0xbd141452	-0.03615219
126	0x3ca9fa0c	0.020749114
127	0x3dc576ab	0.09641775
128	0x3ca5bf04	0.020232685
129	0xbda40e0e	-0.08010493
130	0xbda3d8cc	-0.08000335
131	0x3de9c87b	0.11415192
132	0xbd0a61d2	-0.033784695
133	0xbd73adac	-0.0594918
134	0xbcbe6bd0	-0.023244768
135	0xbd3750f6	-0.044754945
136	0x3c039a28	0.008032359
137	0xbce3b444	-0.027795918
138	0x3cd30c8c	0.025762819
139	0x3de1c9e7	0.11024838
140	0x3c32c3f8	0.01091098
141	0x3dd65aa5	0.10466508
142	0x3de22f67	0.110441975
143	0x3dc30637	0.0952267
144	0x3d1d70b6	0.038437568
145	0xbd19b84e	-0.037529282
146	0x3d92a04d	0.07159481
147	0xbc0e1ca8	-0.008673824
148	0xbd44b444	-0.048023477
149	0x3dbcb05f	0.092133276
150	0x3d87d545	0.06632475
151	0xbd31cd00	-0.043408394
152	0x3b411040	0.0029459149
153	0x3d8d94cd	0.06913147
154	0x3d03cbda	0.03217683
155	0xbdb97129	-0.09054787
156	0xbd8ab79e	-0.067733034
157	0x3c8f7c4c	0.017515324
158	0x3dcbd00b	0.099517904
159	0xbd86a5b8	-0.06574577
160	0x3d690632	0.056890674
161	0x3d4a8c6e	0.04945033
162	0xbd26cd76	-0.040723287
163	0xbd3660b6	-0.044525824
164	0xbb9c2a50	-0.004765786
165	0xbd8c0098	-0.06836051
166	0x3dee5483	0.11637213
167	0x3c7642f8	0.015030615
168	0xbdc3f2ea	-0.095678166
169	0xbd3f715a	-0.04673896
170	0x3d5350ae	0.051590614
171	0x3d666d36	0.056256495
172	0xbd0751a2	-0.033036835
173	0xbd2eaca8	-0.042645127
174	0xbc168ac8	-0.0091883615
175	0xbdbefb6a	-0.09325297
176	0x3dd8d09b	0.10586663
177	0x3dbc4c47	0.09194236
178	0x3d48c806	0.049018882
179	0xbda93dec	-0.08263764
180	0x3d0f3a9a	0.034967996
181	0xbae1a040	-0.0017213896
182	0x3c60e928	0.013727464
183	0xbcd87390	-0.026422292
184	0x3d826427	0.06366759
185	0xbde66502	-0.112497345
186	0x3ddca2dd	0.10773251
187	0xbb2e15c0	-0.0026563257
188	0x3cc4f1d4	0.024041094
189	0xbd9ee524	-0.07758549
190	0xbde9a214	-0.11407867
191	0xbd36507e	-0.044510357
192	0x3dc02195	0.09381405
193	0x3d27d31e	0.04097282
194	0x3d8882a1	0.066655405
195	0x3dcb87f1	0.09938038
196	0x3cfb086c	0.030643664
197	0xbd50ccbc	-0.0509765
198	0x3d0d0eb2	0.034437843
199	0xbd9c2e0a	-0.07625969
200	0x3c8f507c	0.017494433
201	0xbd924256	-0.07141559
202	0xbd2f391a	-0.042779066
203	0xbd64d52d	-0.055867363
204	0xbd4ec86e	-0.050484113
205	0xbd51a202	-0.051179893
206	0xbdb04474	-0.086068064
207	0xbddb00e8	-0.10693532
208	0xbdb8b51d	-0.090189196
209	0x3c9d882c	0.01922997
210	0x3dacace1	0.084314115
211	0x3c88358c	0.016627096
212	0x3d9f22fd	0.07770345
213	0x3dea8b95	0.114524044
214	0xbd5d0bae	-0.053966217
215	0xbcd52f64	-0.026023574
216	0x3c8d4a9c	0.01724749
217	0xbdb7f2d9	-0.089818664
218	0xbda24f76	-0.07925312
219	0xbde9807c	-0.114014596
220	0x3d7c5fae	0.061614685
221	0x3d4b9cbe	0.049710028
222	0x3d0c211e	0.03421127
223	0xbc31b810	-0.010847107
224	0xbc33f688	-0.010984071
225	0xbdb2500c	-0.08706674
226	0xbc566780	-0.0130862
227	0x3d8f4775	0.06996051
228	0xbc8c8d38	-0.017157182
229	0xbcc93770	-0.024562567
230	0xbb2376a0	-0.0024942532
231	0xbd085878	-0.033287495
232	0xbde40fc6	-0.11135821
233	0x3d519286	0.051165126
234	0xbde773d9	-0.11301393
235	0x3caf7114	0.021416225
236	0x3deeefdf	0.116668455
237	0x3d4a015e	0.04931771
238	0x3daa47b3	0.08314457
239	0xb940cc00	-0.00018386543
240	0xbc3d2d08	-0.011546381
241	0xbc5eede8	-0.013606526
242	0xbd18a4fc	-0.037266716
243	0x3bcd7f20	0.006271258
244	0x3c96567c	0.018351786
245	0xbdb8b030	-0.0901798
246	0xbcc30b94	-0.023809232
247	0xbd61868e	-0.055059962
248	0xbdcadce0	-0.0990541
249	0xbd5b9ee8	-0.05361834
250	0x3d7c7c72	0.061642118
251	0x3d86366f	0.06553351
252	0x3df01b83	0.117239974
253	0xbdbfae32	-0.09359397
254	0x3d9f6351	0.07782615
255	0xbd3b6c58	-0.04575762

1 f4 [100, 400]
0	0x3c0ca280	0.008583665
1	0x3cad59bc	0.021160953
2	0x3b9fedb7	0.0048806327
3	0x3ce986b0	0.028506607
4	0x3c8c9323	0.017160004
5	0xbcf37d26	-0.029722761
6	0xbcd78ce3	-0.026312297
7	0xbcde36be	-0.027125712
8	0xbd5ea699	-0.0543581
9	0x3d128ed0	0.035780728
10	0xbd64ab65	-0.055827517
11	0xbd609e76	-0.05483862
12	0xbc363efc	-0.011123415
13	0x3d97b58d	0.07407675
14	0x3c2de5cb	0.010613869
15	0x3d431887	0.047630813
16	0xbc9f97b1	-0.019481512
17	0xbd22d70a	-0.03975586
18	0x3cfecf66	0.031104755
19	0x3d82fe5c	0.063961715
20	0xbc6ada49	-0.01433427
21	0x3b922f01	0.0044611697
22	0xbd53c62d	-0.051702667
23	0xbdac8b84	-0.08425048
24	0xbd249b30	-0.04018706
25	0x3dcba70e	0.099439725
26	0x3ca53f3f	0.02017176
27	0x3d0dfdcb	0.034665864
28	0x3de06a54	0.109577805
29	0xbd88fc66	-0.06688766
30	0xbc724eb4	-0.014789272
31	0x3d28816f	0.041139062
32	0x3d1f93df	0.03895938
33	0xbd52dbea	-0.051479258
34	0x3d61b920	0.05510819
35	0x3c7f5502	0.015584232
36	0xbda4abd1	-0.08040584
37	0xbd5389a4	-0.051644936
38	0x3c9eb84c	0.019374989
39	0x3dc7b6ce	0.09751664
40	0x3d12c4e8	0.035832316
41	0x3d815f4e	0.06317006
42	0xbd588c64	-0.052868262
43	0xbc8df1e0	-0.017327249
44	0xbc60520c	-0.0136914365
45	0xba6f8f97	-0.0009138523
46	0x3d324bbb	0.043529253
47	0x3ba5e8ae	0.005063138
48	0x3d97294d	0.073809244
49	0xb9df0306	-0.00042536127
50	0x3d04e0fa	0.032441117
51	0x3d5f38de	0.054497592
52	0x3c38ee11	0.011287228
53	0xbc51d935	-0.012808134
54	0xbcc57616	-0.02410416
55	0x3c039c3f	0.008032857
56	0xbaaf2384	-0.0013362025
57	0x3d992754	0.07478204
58	0x3d0a55af	0.03377312
59	0xbd8f2636	-0.0698971
60	0x3cf11bdc	0.02943223
61	0xba84991d	-0.0010116432
62	0x3c5ad3c4	0.013356153
63	0xbc28e989	-0.010309585
64	0x3ddac0e4	0.10681322
65	0x3bb01449	0.005373512
66	0xbd484e58	-0.04890284
67	0x3ce8399f	0.028347788
68	0xbd1d68b9	-0.03842995
69	0xbdf6e1f1	-0.12054814
70	0x3d002644	0.031286493
71	0x3cceed91	0.025259765
72	0xbd173b1c	-0.036921605
73	0xbc619e38	-0.013770632
74	0xbd392426	-0.04520049
75	0x3d4d25fb	0.05008505
76	0x3d0b4614	0.03400238
77	0x3d86ec2b	0.06588014
78	0x3d67085f	0.056404468
79	0x3ac05944	0.0014675041
80	0x3d858d09	0.06521041
81	0x3d2de4ca	0.04245452
82	0xbcd55914	-0.026043452
83	0x3da90d11	0.08254445
84	0x3e02755e	0.12740085
85	0x3d0db56e	0.034596853
86	0xbdd6f6a9	-0.104962654
87	0x3c997cc4	0.01873625
88	0xbdb632b6	-0.08896391
89	0x3d38d7cf	0.045127686
90	0x3bcb179a	0.006197882
91	0x3d1c53db	0.03816591
92	0xbd2e983d	-0.042625654
93	0x3c793f05	0.015212779
94	0xbdb29787	-0.08720308
95	0xbd204d26	-0.039136074
96	0x3d863044	0.06552175
97	0xbdac866b	-0.08424076
98	0x3caea1a2	0.021317307
99	0xbba20dab	-0.004945477
100	0x3d1c6391	0.03818089
101	0x3cbd3100	0.023094654
102	0xbcfe5238	-0.031045064
103	0xbc9d498e	-0.019200113
104	0xbc8b72eb	-0.01702257
105	0xbddd53a4	-0.10806969
106	0xbd1f5e56	-0.038908325
107	0xbbb205b8	-0.0054328106
108	0x3d5a3438	0.053272456
109	0x3ce21e20	0.027602255
110	0x3bab1eb5	0.0052221664
111	0xbccdf6f1	-0.025142165
112	0x3c4aae28	0.012370624
113	0x3d859cb8	0.06524032
114	0x3dc20f98	0.094756305
115	0x3c7ff349	0.015621969
116	0xbc9445e8	-0.01809974
117	0xbcec6c4e	-0.028860237
118	0x3d2b4750	0.041816056
119	0x3d8e6826	0.069534585
120	0xbd03fa19	-0.032220934
121	0xbb903d05	-0.0044018053
122	0x3d33a5f2	0.04385943
123	0x3dff4874	0.12464991
124	0xbbe09dd0	-0.00685475
125	0xbe01902d	-0.12652655
126	0x3c9870d7	0.018608494
127	0xbd690411	-0.056888644
128	0xbc9d6136	-0.019211393
129	0xbca8f4a1	-0.02062446
130	0x3ca4ea3d	0.020131225
131	0x3cd7b1df	0.026329933
132	0xbd59ecf9	-0.05320451
133	0x3bf60a10	0.0075085238
134	0x3d05a1c5	0.03262498
135	0x3d9598eb	0.073045574
136	0xbd079525	-0.03310122
137	0xbcf508a6	-0.02991135
138	0x3c2d8268	0.010590173
139	0x3cbb8d11	0.022894414
140	0xbcc99d3e	-0.024611112
141	0x3cc19049	0.02362837
142	0x3b8da6c6	0.0043228595
143	0x3cc672cd	0.024224663
144	0xbd30c75b	-0.04315887
145	0xbcd31716	-0.025767844
146	0xbcdcd2b6	-0.026955944
147	0x3d4cb885	0.04998066
148	0xbbee4cd5	-0.0072723427
149	0xbc0836c3	-0.008313837
150	0x3cc847ef	0.024448363
151	0x3d20b7ea	0.039237894
152	0xbc09b2e5	-0.008404468
153	0x3d22ceea	0.03974811
154	0xbda10db2	-0.0786394
155	0x3df9bd3e	0.12194298
156	0xbd8087c9	-0.06275899
157	0xbd267918	-0.040642828
158	0x3b9aaa10	0.00471998
159	0x3bbc2c63	0.005742596
160	0xbd83e1f7	-0.06439584
161	0xbc2428c9	-0.01001949
162	0xbc043427	-0.008069075
163	0x3dfac349	0.12244279
164	0xbd68c887	-0.056831863
165	0x3d21b344	0.0394776
166	0xbda9efd2	-0.08297695
167	0x3c5d3475	0.013501276
168	0xbdcc1f70	-0.09966934
169	0x3deebe96	0.11657445
170	0x3dd79555	0.1052653
171	0xbceb1632	-0.028697107
172	0xbca454b6	-0.020059925
173	0x3c4881ad	0.012237948
174	0x3dca125f	0.09866785
175	0x3ce07e36	0.027403932
176	0x3c6d099f	0.014467626
177	0x3d2e4c82	0.042553432
178	0x3b80bd84	0.003928842
179	0xbd9b28ed	-0.07576165
180	0xbcad1105	-0.02112628
181	0xbced18d4	-0.028942503
182	0x3c581784	0.0131892
183	0xbd78e3ff	-0.06076431
184	0xbd8c12b6	-0.06839506
185	0x3c287585	0.010281925
186	0xbd0700db	-0.0329598
187	0x3d53c5b0	0.0517022
188	0x3d83abd3	0.06429257
189	0xbd10f89f	-0.035393354
190	0x3c997d7e	0.018736597
191	0xbbd08f2f	-0.006364725
192	0x3d8f95b3	0.07010975
193	0xbcfda43f	-0.030962108
194	0x3d3c5618	0.045980543
195	0xbd440100	-0.047852516
196	0xbcd00cd0	-0.025396734
197	0xbdad4d29	-0.08461983
198	0xbd996d62	-0.07491566
199	0x3d91a147	0.07110839
200	0x3cf95304	0.030435093
201	0xbd3e31b8	-0.046434134
202	0xbc0c7296	-0.008572241
203	0xbcfac5d0	-0.030611902
204	0xbca538b6	-0.020168643
205	0xbd9ad0c6	-0.075593516
206	0xbd1905d2	-0.037359066
207	0xbcd62632	-0.02614126
208	0xbb30596f	-0.0026908775
209	0xba88dfa5	-0.0010442628
210	0x3d5e1dc1	0.054227594
211	0x3da6a45c	0.08136818
212	0xbd62c91f	-0.055367585
213	0x3cab5c84	0.020918138
214	0x3b9727c4	0.0046128947
215	0xbb9cdd8d	-0.004787153
216	0x3c0c43db	0.0085611
217	0xbbeac3e3	-0.007164465
218	0x3c0cc4ed	0.008591873
219	0xbc5193ba	-0.012791568
220	0xbbca24e9	-0.006168951
221	0x3d4d56ae	0.050131492
222	0xbe0672f3	-0.13129787
223	0x3b45dfb9	0.0030193164
224	0xbdd17762	-0.102278486
225	0x3d08746a	0.033314146
226	0xbcfa398b	-0.030545017
227	0x3b2e43ad	0.002659063
228	0x3c8ba71e	0.017047461
229	0x3d8708a2	0.065934435
230	0x3d2e1a83	0.042505752
231	0x3d6381f9	0.055543873
232	0xbbbbe6ea	-0.005734314
233	0x3bfdba01	0.0077431207
234	0xbda7761e	-0.08176826
235	0x3d2f7fea	0.042846598
236	0x3cf2b19a	0.029625703
237	0xbd57f952	-0.052728005
238	0x3d980daf	0.07424485
239	0x3ca61404	0.020273216
240	0x36c74c30	5.9395315e-06
241	0xbd15ed6b	-0.036603373
242	0x3d934047	0.07189994
243	0x3d7405bd	0.059575785
244	0xbb91adce	-0.004445768
245	0xbd8ab9e5	-0.06773738
246	0xbd56c0e3	-0.052430045
247	0xbd607a75	-0.054804284
248	0x3d6620eb	0.056183737
249	0xbdb58359	-0.08862943
250	0xbd3603d3	-0.04443724
251	0xbd663b9f	-0.056209203
252	0xbd3f0266	-0.046633147
253	0xbcc7a650	-0.024371296
254	0xbc8f662b	-0.017504772
255	0x3dbd0c56	0.092308685

2 f4 [400]
0	0x00000000	0.0
1	0x00000000	0.0
2	0x00000000	0.0
3	0x00000000	0.0
4	0x00000000	0.0
5	0x00000000	0.0
6	0x00000000	0.0
7	0x00000000	0.0
8	0x00000000	0.0
9	0x00000000	0.0
10	0x00000000	0.0
11	0x00000000	0.0
12	0x00000000	0.0
13	0x00000000	0.0
14	0x00000000	0.0
15	0x00000000	0.0
16	0x00000000	0.0
17	0x00000000	0.0
18	0x00000000	0.0
19	0x00000000	0.0
20	0x00000000	0.0
21	0x00000000	0.0
22	0x00000000	0.0
23	0x00000000	0.0
24	0x00000000	0.0
25	0x00000000	0.0
26	0x00000000	0.0
27	0x00000000	0.0
28	0x00000000	0.0
29	0x00000000	0.0
30	0x00000000	0.0
31	0x00000000	0.0
32	0x00000000	0.0
33	0x00000000	0.0
34	0x00000000	0.0
35	0x00000000	0.0
36	0x00000000	0.0
37	0x00000000	0.0
38	0x00000000	0.0
39	0x00000000	0.0
40	0x00000000	0.0
41	0x00000000	0.0
42	0x00000000	0.0
43	0x00000000	0.0
44	0x00000000	0.0
45	0x00000000	0.0
46	0x00000000	0.0
47	0x00000000	0.0
48	0x00000000	0.0
49	0x00000000	0.0
50	0x00000000	0.0
51	0x00000000	0.0
52	0x00000000	0.0
53	0x00000000	0.0
54	0x00000000	0.0
55	0x00000000	0.0
56	0x00000000	0.0
57	0x00000000	0.0
58	0x00000000	0.0
59	0x00000000	0.0
60	0x00000000	0.0
61	0x00000000	0.0
62	0x00000000	0.0
63	0x00000000	0.0
64	0x00000000	0.0
65	0x00000000	0.0
66	0x00000000	0.0
67	0x00000000	0.0
68	0x00000000	0.0
69	0x00000000	0.0
70	0x00000000	0.0
71	0x00000000	0.0
72	0x00000000	0.0
73	0x00000000	0.0
74	0x00000000	0.0
75	0x00000000	0.0
76	0x00000000	0.0
77	0x00000000	0.0
78	0x00000000	0.0
79	0x00000000	0.0
80	0x00000000	0.0
81	0x00000000	0.0
82	0x00000000	0.0
83	0x00000000	0.0
84	0x00000000	0.0
85	0x00000000	0.0
86	0x00000000	0.0
87	0x00000000	0.0
88	0x00000000	0.0
89	0x00000000	0.0
90	0x00000000	0.0
91	0x00000000	0.0
92	0x00000000	0.0
93	0x00000000	0.0
94	0x00000000	0.0
95	0x00000000	0.0
96	0x00000000	0.0
97	0x00000000	0.0
98	0x00000000	0.0
99	0x00000000	0.0
100	0x3f800000	1.0
101	0x3f800000	1.0
102	0x3f800000	1.0
103	0x3f800000	1.0
104	0x3f800000	1.0
105	0x3f800000	1.0
106	0x3f800000	1.0
107	0x3f800000	1.0
108	0x3f800000	1.0
109	0x3f800000	1.0
110	0x3f800000	1.0
111	0x3f800000	1.0
112	0x3f800000	1.0
113	0x3f800000	1.0
114	0x3f800000	1.0
115	0x3f800000	1.0
116	0x3f800000	1.0
117	0x3f800000	1.0
118	0x3f800000	1.0
119	0x3f800000	1.0
120	0x3f800000	1.0
121	0x3f800000	1.0
122	0x3f800000	1.0
123	0x3f800000	1.0
124	0x3f800000	1.0
125	0x3f800000	1.0
126	0x3f800000	1.0
127	0x3f800000	1.0
128	0x3f800000	1.0
129	0x3f800000	1.0
130	0x3f800000	1.0
131	0x3f800000	1.0
132	0x3f800000	1.0
133	0x3f800000	1.0
134	0x3f800000	1.0
135	0x3f800000	1.0
136	0x3f800000	1.0
137	0x3f800000	1.0
138	0x3f800000	1.0
139	0x3f800000	1.0
140	0x3f800000	1.0
141	0x3f800000	1.0
142	0x3f800000	1.0
143	0x3f800000	1.0
144	0x3f800000	1.0
145	0x3f800000	1.0
146	0x3f800000	1.0
147	0x3f800000	1.0
148	0x3f800000	1.0
149	0x3f800000	1.0
150	0x3f800000	1.0
151	0x3f800000	1.0
152	0x3f800000	1.0
153	0x3f800000	1.0
154	0x3f800000	1.0
155	0x3f800000	1.0
156	0x3f800000	1.0
157	0x3f800000	1.0
158	0x3f800000	1.0
159	0x3f800000	1.0
160	0x3f800000	1.0
161	0x3f800000	1.0
162	0x3f800000	1.0
163	0x3f800000	1.0
164	0x3f800000	1.0
165	0x3f800000	1.0
166	0x3f800000	1.0
167	0x3f800000	1.0
168	0x3f800000	1.0
169	0x3f800000	1.0
170	0x3f800000	1.0
171	0x3f800000	1.0
172	0x3f800000	1.0
173	0x3f800000	1.0
174	0x3f800000	1.0
175	0x3f800000	1.0
176	0x3f800000	1.0
177	0x3f800000	1.0
178	0x3f800000	1.0
179	0x3f800000	1.0
180	0x3f800000	1.0
181	0x3f800000	1.0
182	0x3f800000	1.0
183	0x3f800000	1.0
184	0x3f800000	1.0
185	0x3f800000	1.0
186	0x3f800000	1.0
187	0x3f800000	1.0
188	0x3f800000	1.0
189	0x3f800000	1.0
190	0x3f800000	1.0
191	0x3f800000	1.0
192	0x3f800000	1.0
193	0x3f800000	1.0
194	0x3f800000	1.0
195	0x3f800000	1.0
196	0x3f800000	1.0
197	0x3f800000	1.0
198	0x3f800000	1.0
199	0x3f800000	1.0
200	0x00000000	0.0
201	0x00000000	0.0
202	0x00000000	0.0
203	0x00000000	0.0
204	0x00000000	0.0
205	0x00000000	0.0
206	0x00000000	0.0
207	0x00000000	0.0
208	0x00000000	0.0
209	0x00000000	0.0
210	0x00000000	0.0
211	0x00000000	0.0
212	0x00000000	0.0
213	0x00000000	0.0
214	0x00000000	0.0
215	0x00000000	0.0
216	0x00000000	0.0
217	0x00000000	0.0
218	0x00000000	0.0
219	0x00000000	0.0
220	0x00000000	0.0
221	0x00000000	0.0
222	0x00000000	0.0
223	0x00000000	0.0
224	0x00000000	0.0
225	0x00000000	0.0
226	0x00000000	0.0
227	0x00000000	0.0
228	0x00000000	0.0
229	0x00000000	0.0
230	0x00000000	0.0
231	0x00000000	0.0
232	0x00000000	0.0
233	0x00000000	0.0
234	0x00000000	0.0
235	0x00000000	0.0
236	0x00000000	0.0
237	0x00000000	0.0
238	0x00000000	0.0
239	0x00000000	0.0
240	0x00000000	0.0
241	0x00000000	0.0
242	0x00000000	0.0
243	0x00000000	0.0
244	0x00000000	0.0
245	0x00000000	0.0
246	0x00000000	0.0
247	0x00000000	0.0
248	0x00000000	0.0
249	0x00000000	0.0
250	0x00000000	0.0
251	0x00000000	0.0
252	0x00000000	0.0
253	0x00000000	0.0
254	0x00000000	0.0
255	0x00000000	0.0

3 f4 [100, 72]
0	0x3d5263d0	0.05136472
1	0x3debfaa0	0.11522412
2	0x3d91d0d8	0.07119912
3	0xbc58e2a0	-0.013237625
4	0xbdd75764	-0.10514715
5	0x3debdd14	0.11516777
6	0x3e20d780	0.15707207
7	0x3d352a34	0.0442297
8	0xbe1c0c74	-0.15239125
9	0xbe17c79b	-0.14822237
10	0xbe291d45	-0.16515072
11	0xbd15b250	-0.036547005
12	0xbe06ac25	-0.13151605
13	0xbdf2cb38	-0.11855167
14	0x3d809a6a	0.06279452
15	0x3e276a4a	0.1634914
16	0xbdef48e4	-0.11683825
17	0xbd35e75c	-0.044410095
18	0xbceba708	-0.02876617
19	0xbcf911c0	-0.030403972
20	0xbe268d86	-0.16264924
21	0x3de2af58	0.110686004
22	0x3e111a92	0.14170292
23	0x3e35a4c2	0.17738631
24	0xbe074172	-0.13208559
25	0xbde6acba	-0.11263414
26	0xbd907cc3	-0.070550464
27	0xbe3a96b6	-0.18221554
28	0x3bb17960	0.0054160804
29	0x3d5d551c	0.054036245
30	0x3cea5008	0.028602615
31	0xbe3b1ab3	-0.18271904
32	0xbd776b78	-0.060405225
33	0x3d7e75d0	0.062124074
34	0x3de67e70	0.11254585
35	0x3d8f0098	0.06982535
36	0xbdc2efeb	-0.09518417
37	0x3e186e14	0.14885741
38	0xbd8ce46c	-0.068795055
39	0xbdd71112	-0.10501303
40	0xbe1a2da4	-0.15056473
41	0xbe2b3319	-0.16718711
42	0x3e111276	0.14167199
43	0xbbc9ece0	-0.006162271
44	0xbe3607b1	-0.17776372
45	0x3e128dce	0.14311907
46	0x3d96c0f4	0.07361022
47	0xbe3d7e64	-0.18505245
48	0x3e2f2c72	0.17106798
49	0xbda58f69	-0.08083994
50	0x3e3b0890	0.18264985
51	0xbbd7d6a0	-0.0065868646
52	0xbe1f2a67	-0.15543519
53	0xbd455528	-0.048176914
54	0xbc61f340	-0.0137909055
55	0xbd6ed424	-0.05830778
56	0x3bb488c0	0.005509466
57	0xbd81459d	-0.06312106
58	0xbda63db7	-0.0811724
59	0xbe19bae4	-0.150127
60	0x3e03abae	0.1285846
61	0xbc9d4238	-0.019196615
62	0xbe161d55	-0.14659627
63	0xbced1f48	-0.02894558
64	0x3df16ec4	0.11788705
65	0x3d6f95e8	0.05849257
66	0xbb7c2500	-0.0038474202
67	0x3d174b28	0.03693691
68	0x3cde40e0	0.027130544
69	0xbc165870	-0.009176359
70	0xbcbeaf28	-0.02327688
71	0x3e2d69e4	0.16934925
72	0xbd629d1c	-0.055325612
73	0xbe22872d	-0.15871878
74	0xbdf6dbdd	-0.12053654
75	0x3e3074ea	0.17232099
76	0xbe3a2cac	-0.18181103
77	0xbdd2028e	-0.102543935
78	0xbd1c6d9c	-0.03819047
79	0x3e082e6c	0.13298959
80	0x3e291d30	0.1651504
81	0xbd927c1f	-0.071525805
82	0xbe1d6973	-0.15372257
83	0x3dba15a8	0.09086162
84	0xbe288a18	-0.16458929
85	0xbba38e80	-0.0049913526
86	0x3d361aac	0.04445903
87	0xbda795ba	-0.08182855
88	0xbd94ae54	-0.07259813
89	0x3df51d04	0.11968425
90	0xbabd3300	-0.0014434755
91	0x3e2b15ae	0.16707489
92	0xbdca1357	-0.0986697
93	0xbe23916b	-0.15973441
94	0xbe1579e6	-0.14597282
95	0xbe31570a	-0.17318359
96	0x3dc1c9d4	0.09462324
97	0x3d5491cc	0.051896855
98	0xbd531f3c	-0.05154346
99	0xbe12b9c4	-0.14328676
100	0xbe17d7e6	-0.14828452
101	0x3daa16ac	0.083051056
102	0x3caf4210	0.021393806
103	0xbe3f04a6	-0.18654117
104	0xbe33e960	-0.17569494
105	0xbe200932	-0.15628508
106	0xbe070ef2	-0.13189295
107	0x3d4666d4	0.04843791
108	0x3d3e2f50	0.04643184
109	0xbd99cf85	-0.07510284
110	0x3d8193f8	0.06327051
111	0x3e18f5e2	0.14937547
112	0x3dc016d0	0.09379351
113	0xbe1248b0	-0.1428554
114	0xbdc60c98	-0.09670371
115	0x3e3b2c60	0.18278646
116	0xbd841105	-0.06448559
117	0xbc970d10	-0.018438846
118	0xbdb986fb	-0.090589486
119	0x3d2fbeac	0.04290645
120	0x3d829538	0.063761175
121	0xbca24c70	-0.019811839
122	0xbe30119d	-0.17194219
123	0xbba4b5a0	-0.005026534
124	0x3daa14e0	0.08304763
125	0x3df805bc	0.12110469
126	0xbc9a3ff8	-0.01882933
127	0x3e000c48	0.12504685
128	0xbd833c07	-0.06407934
129	0xbc439930	-0.011938378
130	0x3e336e34	0.17522508
131	0x3dcfbe78	0.10143751
132	0x3c7fbba0	0.015608698
133	0x3d9e2514	0.07721916
134	0xbdff85bc	-0.1247668
135	0xbdd37368	-0.10324746
136	0xbe1a4adf	-0.15067624
137	0x3dd57d64	0.10424307
138	0xbdcaf10a	-0.09909256
139	0x3e268a06	0.1626359
140	0x3ded1bc0	0.115775585
141	0xbe0bcbf6	-0.13652024
142	0x3d3c8ff8	0.046035737
143	0x3e20c7c6	0.15701208
144	0xbdf0bcb5	-0.11754743
145	0x3de387bc	0.11109874
146	0x3e34b768	0.17648089
147	0x3dbbd7b4	0.091720015
148	0x3ddbecbc	0.10738513
149	0x3d2a96c4	0.041647688
150	0xbd2b3be8	-0.041805178
151	0xbe231df2	-0.15929392
152	0x3e167084	0.14691359
153	0x3e13c58c	0.14430827
154	0x3e2c7d3a	0.16844645
155	0x3d020b18	0.03174886
156	0x3d1f84bc	0.038944945
157	0x3a574100	0.0008211285
158	0x3e25bd38	0.16185462
159	0x3e2a6412	0.16639736
160	0x3e23bf46	0.15990934
161	0x3db4cb90	0.08827889
162	0x3e0c05de	0.13674113
163	0x3d2bcc60	0.041942954
164	0x3e3be3c6	0.18348607
165	0xbdf0f69b	-0.11765786
166	0xbe156c1c	-0.14592022
167	0x3e3aa54e	0.18227121
168	0x3d1ffaf4	0.039057687
169	0x3c3ced50	0.011531189
170	0x3c3d8850	0.011568144
171	0x3c694010	0.014236465
172	0xbe11fd92	-0.14256886
173	0x3e24a4e0	0.1607852
174	0xbdc91b5b	-0.09819671
175	0x3d993588	0.074809134
176	0x3da285a4	0.07935646
177	0x3d7d528c	0.0618463
178	0xbe0918d5	-0.13388379
179	0xbc8e1b20	-0.017346919
180	0x3d9a7e28	0.07543594
181	0x3e0588a6	0.13040408
182	0x3e12cee6	0.14336738
183	0xbd66b188	-0.05632165
184	0x3e072734	0.13198549
185	0x3cf56e68	0.029959872
186	0x3dc15d84	0.09441665
187	0xbb5f6940	-0.0034089833
188	0xbd7232ec	-0.059130594
189	0x3e3820d2	0.1798127
190	0x3a114f00	0.0005543083
191	0x3e203538	0.15645301
192	0x3e24b070	0.1608293
193	0x3e0b3fb2	0.13598517
194	0x3e08d1da	0.13361302
195	0xbd34ed80	-0.04417181
196	0xbdb4c612	-0.088268414
197	0xbd6df5bc	-0.05809568
198	0xbb4d7540	-0.0031350404
199	0x3df2d844	0.11857656
200	0xbdfb83e3	-0.12281015
201	0x3e20efca	0.15716472
202	0x3e01dda4	0.12682205
203	0x3db21ed4	0.08697286
204	0xbdcdb1a3	-0.10043647
205	0xbe0fba6d	-0.1403596
206	0x3dd17164	0.10226706
207	0x3d7019b8	0.058618277
208	0x3d297014	0.04136665
209	0xbe189de7	-0.14903985
210	0xbbd439a0	-0.006476596
211	0xbbd28da0	-0.0064255744
212	0x3e1c0424	0.15235955
213	0x3baf36c0	0.005347103
214	0xbe02bf9a	-0.12768403
215	0x3d9ec900	0.077531815
216	0x3dee5104	0.11636546
217	0x3ddcbd74	0.10778323
218	0xbdc42db0	-0.09579027
219	0xbe1658c3	-0.14682297
220	0x3d3b4220	0.04571736
221	0x3e0a2ebc	0.1349439
222	0xbe1b98b1	-0.15194966
223	0x3e00f208	0.12592328
224	0x3d4e21f4	0.05032535
225	0x3de0b88c	0.109726995
226	0x3ce1c6e0	0.027560651
227	0x3dd65930	0.1046623
228	0xbe1b754f	-0.15181468
229	0x3e38a0f8	0.18030155
230	0x3e192e68	0.14959109
231	0xbdbc8dbc	-0.09206721
232	0x3d24bca8	0.04021898
233	0xbdaf4825	-0.08558682
234	0x3dd1c0ec	0.10241875
235	0x3d847ac0	0.06468725
236	0xbcfcd3d0	-0.030862719
237	0x3d58f09c	0.052963838
238	0xbd7d84ca	-0.061894216
239	0x3c589280	0.013218522
240	0x3c7fbf00	0.015609503
241	0xbe1aa2d4	-0.15101177
242	0xbe35459d	-0.17702337
243	0x3d1262cc	0.03573875
244	0x3dd8ca28	0.10585433
245	0x3e0c1450	0.13679624
246	0xbe1ef996	-0.15524897
247	0xbd8053fa	-0.06266017
248	0xbe0d086f	-0.13772748
249	0xbe2802af	-0.16407274
250	0x3dee00c0	0.11621237
251	0x3e13b96c	0.14426202
252	0x3d05c634	0.032659724
253	0xbdb139a8	-0.08653575
254	0x3e034ad8	0.1282152
255	0xbe2c751e	-0.16841552

4 f4 [72]
0	0x00000000	0.0
1	0x00000000	0.0
2	0x00000000	0.0
3	0x00000000	0.0
4	0x00000000	0.0
5	0x00000000	0.0
6	0x00000000	0.0
7	0x00000000	0.0
8	0x00000000	0.0
9	0x00000000	0.0
10	0x00000000	0.0
11	0x00000000	0.0
12	0x00000000	0.0
13	0x00000000	0.0
14	0x00000000	0.0
15	0x00000000	0.0
16	0x00000000	0.0
17	0x00000000	0.0
18	0x00000000	0.0
19	0x00000000	0.0
20	0x00000000	0.0
21	0x00000000	0.0
22	0x00000000	0.0
23	0x00000000	0.0
24	0x00000000	0.0
25	0x00000000	0.0
26	0x00000000	0.0
27	0x00000000	0.0
28	0x00000000	0.0
29	0x00000000	0.0
30	0x00000000	0.0
31	0x00000000	0.0
32	0x00000000	0.0
33	0x00000000	0.0
34	0x00000000	0.0
35	0x00000000	0.0
36	0x00000000	0.0
37	0x00000000	0.0
38	0x00000000	0.0
39	0x00000000	0.0
40	0x00000000	0.0
41	0x00000000	0.0
42	0x00000000	0.0
43	0x00000000	0.0
44	0x00000000	0.0
45	0x00000000	0.0
46	0x00000000	0.0
47	0x00000000	0.0
48	0x00000000	0.0
49	0x00000000	0.0
50	0x00000000	0.0
51	0x00000000	0.0
52	0x00000000	0.0
53	0x00000000	0.0
54	0x00000000	0.0
55	0x00000000	0.0
56	0x00000000	0.0
57	0x00000000	0.0
58	0x00000000	0.0
59	0x00000000	0.0
60	0x00000000	0.0
61	0x00000000	0.0
62	0x00000000	0.0
63	0x00000000	0.0
64	0x00000000	0.0
65	0x00000000	0.0
66	0x00000000	0.0
67	0x00000000	0.0
68	0x00000000	0.0
69	0x00000000	0.0
70	0x00000000	0.0
71	0x00000000	0.0

5 f4 [72, 50]
0	0x3dd17d7c	0.10229012
1	0xbdedf30a	-0.11618622
2	0xbd9b3a8a	-0.07579525
3	0x3cc44f60	0.02396363
4	0x3cdf69c8	0.02727212
5	0x3d9e4834	0.077286154
6	0xbe37d740	-0.17953205
7	0xbe3b09d1	-0.18265463
8	0xbdf3f1bf	-0.11911344
9	0x3d5719c0	0.05251479
10	0xbdb19d3c	-0.08672568
11	0x3e1c6236	0.1527184
12	0x3de125dc	0.10993549
13	0xbd8058f6	-0.06266968
14	0xbe37dd78	-0.17955577
15	0xbdc795a5	-0.09745339
16	0xbbecd360	-0.0072273463
17	0xbd1ed00c	-0.038772628
18	0x3d051b90	0.03249699
19	0x3d0f5fa8	0.035003334
20	0x3e571f3e	0.21008012
21	0x3e2ce4ac	0.16884106
22	0x3e1352e4	0.14387089
23	0xbdd33c3c	-0.10314223
24	0x3e379b66	0.17930374
25	0xbdf40d7f	-0.11916637
26	0xbe469a94	-0.19394904
27	0xbe55d053	-0.2088025
28	0xbd340e24	-0.043958798
29	0x3d67b0f8	0.056565255
30	0x3e43a236	0.19104847
31	0xbd75d324	-0.060015813
32	0x3d2508a8	0.04029146
33	0x3d4d33a0	0.05009806
34	0x3e571ab6	0.21006283
35	0x3ddcf344	0.10788587
36	0x3e44b7b6	0.19210705
37	0xbd84b968	-0.06480676
38	0xbb663500	-0.0035126805
39	0x3e62dfd0	0.2215569
40	0xbdf4860d	-0.11939631
41	0xbdea59f6	-0.1144294
42	0xbe4cd008	-0.20001233
43	0x3d20b490	0.039234698
44	0x3e292a4a	0.16520038
45	0x3da899b4	0.082324415
46	0xbe45422c	-0.19263524
47	0x3d61efe0	0.055160403
48	0xbe2db964	-0.16965252
49	0xbe60b55b	-0.21944182
50	0x3df3f634	0.11912194
51	0x3dee401c	0.11633322
52	0x3de29a3c	0.11064574
53	0xbe0cbb96	-0.13743433
54	0x3e48e284	0.19617659
55	0xbd3ff570	-0.046864927
56	0x3d9d4058	0.07678288
57	0x3d8279d8	0.06370896
58	0x3e35b538	0.1774491
59	0x3e0f74ae	0.14009354
60	0xbd83704e	-0.06417905
61	0xbdf71f85	-0.12066559
62	0x3dd6f1c8	0.10495335
63	0x3db544e4	0.088510305
64	0xbe2a9dce	-0.1666176
65	0x3e1a5c14	0.15074188
66	0x3e47b58a	0.19502845
67	0x3e5b28ce	0.21402285
68	0x3de3c850	0.11122191
69	0xbd3380d4	-0.043824032
70	0xbe4da21d	-0.20081373
71	0x3e1bca58	0.15213907
72	0x3da2efe8	0.07955915
73	0xbe03ab7e	-0.12858388
74	0xbe5faf2c	-0.21844167
75	0xbde97a3a	-0.11400266
76	0x3e4976a4	0.19674164
77	0x3e5a21ae	0.2130191
78	0x3e400600	0.18752289
79	0xb9c9fa00	-0.00038523972
80	0x3ba64f20	0.0050753504
81	0xbd7b9b54	-0.06142743
82	0xbd89f544	-0.06736234
83	0x3e40bc8e	0.18821928
84	0xbc32c6d0	-0.010911658
85	0xbdeb2fd4	-0.11483732
86	0xbe34c1d4	-0.17652065
87	0xbe2588ac	-0.16165417
88	0x3dad4be4	0.084617406
89	0x3db6ce38	0.08926052
90	0x3e2a5bb0	0.16636539
91	0xbe04c4dc	-0.12965721
92	0xbe46f524	-0.19429451
93	0xbe0dc6cc	-0.13845366
94	0xbd1515c4	-0.03639771
95	0x3e1f280a	0.15542617
96	0x3d0d5930	0.034508884
97	0xbddea816	-0.108719036
98	0x3b4cbe00	0.0031241179
99	0x3de59ca8	0.112115204
100	0xbdd8152f	-0.105509154
101	0xbe1dbe8c	-0.15404719
102	0x3e0f41d6	0.13989958
103	0x3e589bf6	0.21153244
104	0xbe593148	-0.21210206
105	0xbe4faf5e	-0.20281741
106	0x3e291518	0.16511953
107	0xbe493d6d	-0.19652338
108	0x3e399fa8	0.1812731
109	0xbdeb1eeb	-0.114805065
110	0x3e434d9a	0.19072571
111	0x3e1c2636	0.15248951
112	0xbe52bf8c	-0.20580882
113	0x3de13828	0.10997039
114	0xbd6601dc	-0.056154117
115	0x3d96f34c	0.07370624
116	0x3e1ebf88	0.15502751
117	0x3e1aa850	0.15103269
118	0x3dd648f0	0.104631305
119	0x3daaf1a8	0.083468735
120	0xbe178581	-0.14797021
121	0xbe1ab2ea	-0.15107313
122	0xbe46bfee	-0.19409153
123	0xbdcc2124	-0.099672586
124	0xbe1cc5f0	-0.15309882
125	0x3c6121c0	0.013740957
126	0xbe5775ee	-0.2104108
127	0xbddd3322	-0.108007684
128	0x3df290e4	0.11844042
129	0x3e4d6430	0.2005775
130	0x3e3804d6	0.17970595
131	0x3e24b5b4	0.16084939
132	0xbe3121cb	-0.17298047
133	0x3e2ab594	0.16670829
134	0x3e4894f4	0.19588071
135	0xbdf8c444	-0.1214681
136	0x3dee18e8	0.11625844
137	0xbde8f49d	-0.11374781
138	0x3e212a2a	0.1573874
139	0x3d6e6a80	0.058207035
140	0xbe629701	-0.22127916
141	0xbd3410c0	-0.043961287
142	0x3e52479a	0.20535126
143	0x3e33b692	0.17550114
144	0x3e480518	0.19533193
145	0xbd3ece60	-0.046583533
146	0x3e4a5242	0.19757941
147	0x3e2dc056	0.16967902
148	0xbd994a10	-0.074848294
149	0x3de44b2c	0.111471504
150	0x3d3ce398	0.046115488
151	0x3e56e860	0.20987082
152	0x3d9d1a8c	0.07671079
153	0xbca33ba8	-0.019925907
154	0x3e053b68	0.13010943
155	0x3d1e13c0	0.038593054
156	0x3c61f950	0.013792351
157	0x3de57e74	0.1120576
158	0xbd35ae90	-0.04435593
159	0xbdc5feca	-0.09667738
160	0x3dfabe10	0.12243283
161	0xbe06d538	-0.13167274
162	0xbda7bba8	-0.081900895
163	0xbd1358cc	-0.035973355
164	0x3dfb144c	0.12259731
165	0xbdb0836c	-0.08618817
166	0xbe253f84	-0.1613751
167	0xbd173498	-0.03691539
168	0x3da72718	0.081617534
169	0x3c954500	0.018221378
170	0x3c03f700	0.008054495
171	0xbdbd17ce	-0.09233056
172	0x3de5b014	0.11215225
173	0x3de943b4	0.113898665
174	0x3dffeb90	0.12496102
175	0x3e412894	0.18863136
176	0x3e1296ac	0.1431529
177	0xbdc81920	-0.09770417
178	0xbdb9629e	-0.09052013
179	0x3e421142	0.18951896
180	0xbdaaa5a6	-0.08332376
181	0xbe57b176	-0.2106379
182	0x39859600	0.00025479496
183	0x3e3f9160	0.187078
184	0xbe524119	-0.20532645
185	0xbd91c698	-0.07117957
186	0xbd46a118	-0.048493475
187	0x3d8097a4	0.06278923
188	0x3e5fd8c0	0.21860027
189	0xbd869430	-0.06571233
190	0xbe5bb87e	-0.21457097
191	0x3bfb41a0	0.007667735
192	0x3e3d6462	0.18495324
193	0xbd2aa1e0	-0.041658282
194	0x3e499d42	0.19688895
195	0x3e47ae30	0.19500041
196	0x3e2dd62e	0.16976234
197	0xbdb296b8	-0.087201536
198	0x3e47737e	0.1947765
199	0x3dc4df74	0.09612933
200	0xbcfc27f8	-0.030780777
201	0x3ce39608	0.027781501
202	0xbe06c304	-0.1316033
203	0xbdf84efa	-0.121244386
204	0x3e54e59c	0.20790714
205	0x3e35b70c	0.17745608
206	0xbc421100	-0.011844873
207	0x3e433842	0.1906443
208	0x3cb55678	0.022135958
209	0xbe24f2bf	-0.16108225
210	0x3e0c03a2	0.13673261
211	0xbe3ce266	-0.18445739
212	0xbd88e132	-0.066835776
213	0xbe327fa4	-0.17431504
214	0xbd17aa5c	-0.0370277
215	0x3d8f2748	0.06989914
216	0x3de56f7c	0.112029046
217	0xbd0a5650	-0.03377372
218	0xbe06ed76	-0.13176522
219	0x3df3ca84	0.11903861
220	0x3d578ba0	0.05262339
221	0x3e1f7318	0.15571249
222	0x3e1285fe	0.14308926
223	0x3e171928	0.1475569
224	0xbe3244e3	-0.1740909
225	0xbe274e56	-0.16338477
226	0x3caae268	0.020859912
227	0xbdb0a6f6	-0.08625595
228	0xbdd79e8a	-0.10528286
229	0x3bb0c840	0.0053949654
230	0x3d984ea0	0.074368715
231	0xbe1381d3	-0.14404993
232	0xbe3efef8	-0.1865195
233	0xbd925282	-0.07144643
234	0x3e61295a	0.2198843
235	0x3d255970	0.040368497
236	0x3e05c6e2	0.13064149
237	0xbd8d2252	-0.06891312
238	0x3e4ed546	0.20198545
239	0xbdb23f60	-0.08703494
240	0xbd4803a4	-0.048831597
241	0xbe00c211	-0.1257403
242	0xbe57b22e	-0.21064064
243	0xbe46a8fa	-0.19400397
244	0x3dbe7fec	0.09301743
245	0xbd4890d8	-0.04896626
246	0xbd744050	-0.059631646
247	0x3db97f78	0.09057516
248	0xbccad280	-0.024758577
249	0xbe139a6a	-0.14414373
250	0xbe593872	-0.21212938
251	0x3da79f98	0.08184737
252	0x3d122828	0.035682827
253	0xbe31e68e	-0.17373106
254	0x3d64c8e0	0.05585563
255	0xbd20bef8	-0.039244622

6 f4 [50]
0	0x00000000	0.0
1	0x00000000	0.0
2	0x00000000	0.0
3	0x00000000	0.0
4	0x00000000	0.0
5	0x00000000	0.0
6	0x00000000	0.0
7	0x00000000	0.0
8	0x00000000	0.0
9	0x00000000	0.0
10	0x00000000	0.0
11	0x00000000	0.0
12	0x00000000	0.0
13	0x00000000	0.0
14	0x00000000	0.0
15	0x00000000	0.0
16	0x00000000	0.0
17	0x00000000	0.0
18	0x00000000	0.0
19	0x00000000	0.0
20	0x00000000	0.0
21	0x00000000	0.0
22	0x00000000	0.0
23	0x00000000	0.0
24	0x00000000	0.0
25	0x00000000	0.0
26	0x00000000	0.0
27	0x00000000	0.0
28	0x00000000	0.0
29	0x00000000	0.0
30	0x00000000	0.0
31	0x00000000	0.0
32	0x00000000	0.0
33	0x00000000	0.0
34	0x00000000	0.0
35	0x00000000	0.0
36	0x00000000	0.0
37	0x00000000	0.0
38	0x00000000	0.0
39	0x00000000	0.0
40	0x00000000	0.0
41	0x00000000	0.0
42	0x00000000	0.0
43	0x00000000	0.0
44	0x00000000	0.0
45	0x00000000	0.0
46	0x00000000	0.0
47	0x00000000	0.0
48	0x00000000	0.0
49	0x00000000	0.0

7 f4 [50, 36]
0	0xbd9daa94	-0.07698551
1	0x3e004dee	0.12529728
2	0xbdbbd19a	-0.09170838
3	0xbe4eac53	-0.20182924
4	0x3e5f12a0	0.21784449
5	0xbe34e9cf	-0.17667316
6	0x3e7ae81e	0.24502608
7	0xbd681980	-0.056664944
8	0x3e1e5efc	0.15465921
9	0x3d978e14	0.07400146
10	0x3b78e700	0.0037979484
11	0xbe7c3571	-0.24629761
12	0xbe065553	-0.13118486
13	0x3e375c0a	0.17906204
14	0xbd4b9e3c	-0.04971145
15	0x3dcfa7cc	0.101394266
16	0xbd74d420	-0.05977261
17	0x3e2127b4	0.15737802
18	0x3e7c1e8e	0.2462103
19	0x3d8bd264	0.06827238
20	0xbe14ca96	-0.14530405
21	0xbc8f9e70	-0.017531604
22	0xbdc48aaa	-0.095967606
23	0x3e4cf824	0.20016533
24	0x3e5fe294	0.21863776
25	0xbe2ae266	-0.16687927
26	0x3e3e0942	0.18558219
27	0x3d1846e0	0.037176967
28	0xbe231829	-0.15927185
29	0x3e523722	0.20528844
30	0x3e834bd3	0.25643787
31	0xbdeac858	-0.11463994
32	0x3e7ee69a	0.24892655
33	0x3d854e2c	0.06509051
34	0x3ac5f600	0.0015103221
35	0xbdc33568	-0.09531671
36	0xbe175722	-0.14779332
37	0xbde4fad8	-0.11180657
38	0x3dc4fd90	0.09618676
39	0xbe7da0e0	-0.247684
40	0xbe0b3a5d	-0.13596483
41	0x3e39db2a	0.1815001
42	0xbe3aa71c	-0.1822781
43	0x3dbfc37c	0.093634576
44	0x3c78f7a0	0.015195757
45	0xbd1707fc	-0.03687285
46	0xbe03df29	-0.12878098
47	0xbe774fa8	-0.2415148
48	0xbe24f51b	-0.16109125
49	0x3d222c88	0.03959325
50	0x3e7554c2	0.23958114
51	0x3e83bb89	0.25729015
52	0x3cf53f20	0.029937327
53	0xbd24ed08	-0.040265113
54	0xbb152200	-0.0022755861
55	0x3dc360e4	0.09539965
56	0xbd502e94	-0.05082567
57	0xbdcbb798	-0.09947127
58	0x3d1a4958	0.037667602
59	0x3e0dd2fe	0.13850018
60	0xbd03a538	-0.032139987
61	0x3e3bcf52	0.18340805
62	0x3e1cd72c	0.15316457
63	0xbcf75510	-0.030191928
64	0xbe736d5a	-0.23772183
65	0xbdbb216c	-0.09137234
66	0x3de4a9e4	0.111652166
67	0xbd6c50c0	-0.057694197
68	0xbe555dc1	-0.20836546
69	0xbddac746	-0.1068254
70	0x3dce2970	0.10066497
71	0xbd44a92c	-0.048012897
72	0xbe34a540	-0.17641163
73	0xbe616a14	-0.22013122
74	0x3e693320	0.22773409
75	0x3e6c840e	0.2309725
76	0x3d40f2f0	0.047106683
77	0x3d869c34	0.06572762
78	0xbc504e80	-0.012714028
79	0x3d9b0738	0.07569736
80	0x3e0b93d2	0.13630608
81	0x3e81ab01	0.25325778
82	0xbe404c32	-0.18779066
83	0x3dc6d700	0.09708977
84	0x3ddea508	0.10871321
85	0xbdb6174a	-0.08891161
86	0xbc8424e0	-0.016130865
87	0x3e3bba46	0.18332776
88	0x3df3e668	0.11909181
89	0xbe25d952	-0.16196182
90	0xbe5cfd9e	-0.21581122
91	0x3e35b3f4	0.17744428
92	0x3dd621a4	0.10455635
93	0xbe39f583	-0.18160062
94	0x3d241258	0.040056556
95	0xbdf7913e	-0.120882496
96	0xbe5740cb	-0.2102081
97	0xbe43077a	-0.19045821
98	0x3d72c4e8	0.059269816
99	0x3e5b72ae	0.21430466
100	0x3d8c0450	0.0683676
101	0xbe5c92db	-0.21540396
102	0xbd684b6c	-0.056712553
103	0x3dd925c8	0.10602909
104	0xbd8ecdce	-0.06972848
105	0x3d843be0	0.06456733
106	0x3e5c2db6	0.21501812
107	0xbe35bf4c	-0.17748755
108	0xbe3c785e	-0.18405291
109	0xbd55b4e4	-0.052174464
110	0xbe131558	-0.1436361
111	0x3c8b9f70	0.0170438
112	0x3e1864b6	0.14882168
113	0xbdf9fa76	-0.12205975
114	0x3d825d5c	0.06365463
115	0xbe68dd80	-0.22740746
116	0x3c7d3680	0.015454888
117	0xbdfb29d2	-0.12263836
118	0x3e86e7bf	0.26348683
119	0x3d2cc848	0.04218319
120	0xbe807485	-0.25088897
121	0xbcf74468	-0.030183986
122	0xbdb120c4	-0.08648828
123	0x3e7ad3b6	0.24494824
124	0xbdc9133e	-0.09818123
125	0x3ca281b0	0.01983723
126	0x3bf10040	0.007354766
127	0x3dd74eb8	0.10513061
128	0x3ceb43e0	0.028718889
129	0xbdabf464	-0.08396223
130	0x3e2f6e4a	0.17131916
131	0xbdb19184	-0.08670333
132	0xbb1a8d80	-0.0023582876
133	0x3e7def1e	0.24798247
134	0xbd666da8	-0.05625692
135	0xbe82f44a	-0.25577003
136	0x3e79b88e	0.24386808
137	0xbe81a18b	-0.2531856
138	0x3e2e40de	0.17016932
139	0xbd0c0064	-0.03418006
140	0xbe1a6306	-0.15076837
141	0xbe2416fc	-0.16024393
142	0x3e680534	0.22658235
143	0x3e81ad13	0.25327358
144	0xbe609450	-0.21931577
145	0xbe388adb	-0.18021719
146	0xbe82fec1	-0.25584987
147	0x3e86d345	0.2633306
148	0x3d92fe00	0.07177353
149	0xbd5ca1c4	-0.05386521
150	0xbe3508cc	-0.17679137
151	0x3e6d323e	0.23163697
152	0x3df14f6c	0.11782727
153	0xbe156d9f	-0.14592598
154	0x3ce1ba70	0.02755472
155	0xbe699589	-0.2281095
156	0xbe6ad352	-0.22932175
157	0x3d66c900	0.056344032
158	0x3da53f58	0.080687225
159	0xbe26450e	-0.1623728
160	0x3e57cf64	0.21075207
161	0x3c82bfa0	0.015960515
162	0xbe4ff39f	-0.20307778
163	0x3dc85ba4	0.09783104
164	0x3e318936	0.17337498
165	0xbe07132c	-0.13190907
166	0x3e3aef6a	0.18255392
167	0xbe7bb6f8	-0.24581516
168	0xbe08ad4a	-0.13347355
169	0x3e1e8510	0.15480447
170	0xbe8167a4	-0.25274384
171	0x3e70c904	0.23514181
172	0xbd1de8d8	-0.038552135
173	0x3c54ab00	0.012980223
174	0x3e1d4304	0.15357596
175	0x3d094e30	0.03352183
176	0xbe10261c	-0.14077038
177	0xbddf781a	-0.109115794
178	0xbe7ecbd8	-0.24882448
179	0xbe02ac1b	-0.12760966
180	0x3d87041c	0.06592581
181	0x3e46c606	0.19411477
182	0xbe659737	-0.22420965
183	0xbd74fe54	-0.05981286
184	0x3d6bdf80	0.057586193
185	0xbe727417	-0.23677097
186	0x3cbe5960	0.023235977
187	0xbe182c0a	-0.1486055
188	0xbe7931b8	-0.24335372
189	0xbe64d9e6	-0.22348747
190	0xbe80c851	-0.2515283
191	0xbe267ba1	-0.16258098
192	0xbe721a3c	-0.2364282
193	0xbdaea5ae	-0.08527695
194	0xbd80c892	-0.06288256
195	0xbb157180	-0.0022803247
196	0x3e0b5eae	0.13610336
197	0xbe732d33	-0.23747711
198	0x3da3c208	0.07995993
199	0x3e698472	0.2280443
200	0xbc823538	-0.015894517
201	0x3da32234	0.07965508
202	0xbde81d74	-0.11333743
203	0xbdbb25d8	-0.091380775
204	0x3c2e3c00	0.010634422
205	0xbd0d42d4	-0.03448756
206	0x3dc11acc	0.09428939
207	0xbe833c64	-0.25632012
208	0x3e616a82	0.22013286
209	0x3d875c60	0.06609416
210	0xbe11a96e	-0.14224789
211	0xbe0d0f9a	-0.13775483
212	0x3e27846c	0.16359109
213	0x3ddad9c4	0.10686067
214	0xbdbffb06	-0.09374051
215	0x3da259a8	0.07927257
216	0xbe17295e	-0.14761874
217	0x3d91b04c	0.07113704
218	0xbdcb10b2	-0.09915294
219	0x3e07b102	0.13251117
220	0x3e7467a6	0.23867664
221	0x3e111806	0.1416932
222	0xbe3f4004	-0.18676764
223	0xbe7f2679	-0.2491702
224	0x3dec1fdc	0.11529514
225	0x3e0364a2	0.12831357
226	0x3e1c5a66	0.1526886
227	0x3d3155c8	0.043294698
228	0xbddcbbae	-0.107779846
229	0xbda5690c	-0.08076677
230	0xbe3355d0	-0.17513204
231	0xbe83293f	-0.25617406
232	0x3a8d6500	0.0010787547
233	0x3e548308	0.2075311
234	0xbdd64170	-0.104617
235	0xbe0b142e	-0.13581917
236	0x3cf9c4d0	0.030489355
237	0x3e41cd4e	0.18925974
238	0x3dd8f1c8	0.10592991
239	0xbe37941a	-0.1792759
240	0x3d1e2730	0.03861159
241	0xbe78c289	-0.2429296
242	0x3dcb5558	0.099283874
243	0xbe686f0e	-0.22698614
244	0xbe624177	-0.22095285
245	0x3cc44c60	0.0239622
246	0xbdb1583c	-0.086594075
247	0x3e2fc7f8	0.17166126
248	0x3d320a30	0.043466747
249	0xbd462760	-0.048377395
250	0xbe77ad5c	-0.24187225
251	0x3db8a85c	0.09016487
252	0x3e175ad8	0.14780748
253	0x3e80fd5b	0.25193295
254	0xbabe4900	-0.0014517605
255	0x3c1e4000	0.0096588135

8 f4 [36]
0	0x00000000	0.0
1	0x00000000	0.0
2	0x00000000	0.0
3	0x00000000	0.0
4	0x00000000	0.0
5	0x00000000	0.0
6	0x00000000	0.0
7	0x00000000	0.0
8	0x00000000	0.0
9	0x00000000	0.0
10	0x00000000	0.0
11	0x00000000	0.0
12	0x00000000	0.0
13	0x00000000	0.0
14	0x00000000	0.0
15	0x00000000	0.0
16	0x00000000	0.0
17	0x00000000	0.0
18	0x00000000	0.0
19	0x00000000	0.0
20	0x00000000	0.0
21	0x00000000	0.0
22	0x00000000	0.0
23	0x00000000	0.0
24	0x00000000	0.0
25	0x00000000	0.0
26	0x00000000	0.0
27	0x00000000	0.0
28	0x00000000	0.0
29	0x00000000	0.0
30	0x00000000	0.0
31	0x00000000	0.0
32	0x00000000	0.0
33	0x00000000	0.0
34	0x00000000	0.0
35	0x00000000	0.0

9 f4 [36, 28]
0	0xbc32d500	-0.010915041
1	0xbca60060	-0.02026385
2	0xbe796efc	-0.24358743
3	0xbe90c6ed	-0.28276768
4	0x3e6cf362	0.23139718
5	0x3d927254	0.071507126
6	0x3e66cd36	0.2253922
7	0x3e365b0c	0.17808169
8	0x3d91cc74	0.071190745
9	0x3e08b9ae	0.13352081
10	0x3e1251f6	0.14289078
11	0x3e2e809c	0.17041248
12	0x3d9d2a98	0.0767414
13	0xbce56100	-0.028000355
14	0x3e76fcde	0.24119899
15	0x3e4fa182	0.20276454
16	0x3e7ffaba	0.24997988
17	0xbe7b7ba2	-0.24558881
18	0x3e1be6ba	0.15224734
19	0x3e5e90ce	0.21734926
20	0x3d724c48	0.05915478
21	0x3e554ea6	0.20830783
22	0xbe8e58e6	-0.278022
23	0xbd0df678	-0.03465888
24	0x3dfc3ae4	0.1231592
25	0x3b757700	0.0037454963
26	0x3cd0b530	0.025477022
27	0xbe9b69b7	-0.30354092
28	0x3df8cc2c	0.12148318
29	0xbe7f761b	-0.24947397
30	0x3d8bb1a4	0.06820992
31	0xbe8c0d76	-0.2735402
32	0x3e06ca72	0.13163164
33	0xbe88b75d	-0.26702395
34	0xbe641205	-0.22272499
35	0x3d178cc8	0.036999494
36	0xbe5ea9c0	-0.21744442
37	0xbe89cdad	-0.2691473
38	0xbc3e4c60	-0.011614889
39	0x3e312d7e	0.1730251
40	0xbcecc8c0	-0.028904319
41	0x3e60a0ae	0.21936294
42	0x3de6cfd0	0.11270106
43	0xbe125253	-0.14289217
44	0x3d8c233c	0.06842658
45	0xbdacca9c	-0.08437082
46	0x3e8c773b	0.27434716
47	0xbe237868	-0.159639
48	0xbe904840	-0.28180122
49	0x3d9da508	0.07697493
50	0xbe168373	-0.14698581
51	0xbb2c5d00	-0.002630055
52	0x3e00c164	0.12573773
53	0xbe5eb662	-0.21749261
54	0x3d8da21c	0.069156855
55	0x3e8cd7c9	0.2750838
56	0x3da7a9d8	0.08186692
57	0x3e5b352e	0.21407005
58	0xbdb98ae6	-0.09059696
59	0x3e1b8cb4	0.15190393
60	0xbe8e496d	-0.27790394
61	0x3dabfac8	0.08397442
62	0x3e8122e9	0.25221947
63	0xbe9c4ba2	-0.30526453
64	0xbd550eb8	-0.05201599
65	0xbe82f187	-0.25574896
66	0x3bd11b40	0.0063814223
67	0xbe99d143	-0.30042467
68	0x3e58f40e	0.2118685
69	0x3e4b660e	0.1986315
70	0x3e914869	0.28375557
71	0xbb70ab00	-0.0036723018
72	0x3de21bb4	0.1104044
73	0xbe2f56f5	-0.17123015
74	0x3e4fb976	0.20285591
75	0xbdb1c9d2	-0.08681072
76	0x3e9125f1	0.2834926
77	0x3e90de99	0.2829483
78	0x3e2cc114	0.16870528
79	0x3db475b8	0.088115156
80	0x3e2cd0f2	0.16876581
81	0x3c024be0	0.00795266
82	0x3e77c006	0.24194345
83	0xbc384b00	-0.01124835
84	0x3e7b76be	0.24557015
85	0x3e518d26	0.20464
86	0xbe0591f6	-0.13043961
87	0x3e1cd3ac	0.15315121
88	0x3e7c4e82	0.24639323
89	0x3e699bd6	0.22813353
90	0xbe807262	-0.25087267
91	0xbd22ff48	-0.039794236
92	0x3d915a48	0.07097298
93	0xbd629f50	-0.055327713
94	0x3b52b580	0.003215164
95	0x3cf9dbb0	0.030500263
96	0xbde2f390	-0.11081612
97	0x3ad33400	0.001611352
98	0xbe91d40d	-0.28482094
99	0xbd7fdad4	-0.06246455
100	0xbe907eec	-0.28221834
101	0xbdf306dc	-0.11866543
102	0xbe83e016	-0.25756902
103	0xbe1c29a5	-0.15250261
104	0xbe8ba41a	-0.27273637
105	0x3e4309de	0.19046733
106	0x3e37c31a	0.17945519
107	0x3d274bb8	0.040843695
108	0xbd3de878	-0.046364278
109	0xbe24d98d	-0.16098614
110	0x3e83ad11	0.25717977
111	0x3e56f03a	0.20990077
112	0xbe40a6c6	-0.18813619
113	0x3e212116	0.15735278
114	0xbe0ab088	-0.13543904
115	0x3e417030	0.18890452
116	0x3e401abc	0.18760198
117	0xbe3a93a8	-0.18220389
118	0x3cb45470	0.02201292
119	0xbe8e9ed3	-0.27855548
120	0x3e33296a	0.17496267
121	0x3c452f20	0.012035161
122	0xbdf9e5b6	-0.12202017
123	0x3e5139d2	0.20432213
124	0xbdf9b882	-0.12193395
125	0x3e638f72	0.22222689
126	0x3d18faf8	0.037348717
127	0x3e30e2c2	0.17274001
128	0x3c716500	0.014733553
129	0xbe01c98d	-0.12674542
130	0x3e960dcf	0.2930741
131	0xbd4a30d8	-0.049362987
132	0xbe4987b1	-0.19680668
133	0x3d664198	0.0562149
134	0xbdf2f164	-0.11862448
135	0x3c84cd60	0.016211212
136	0xbe807bb4	-0.25094378
137	0xbe9a476c	-0.30132616
138	0xbe555aea	-0.20835462
139	0x3e8d99b7	0.27656338
140	0xbe76d920	-0.24106264
141	0xbc861090	-0.01636532
142	0x3e494f9a	0.19659272
143	0xbe3756a8	-0.1790415
144	0x3e933fe1	0.28759673
145	0x3e52829a	0.20557633
146	0xbe25bc9c	-0.1618523
147	0x3dfc7d18	0.12328547
148	0x3dce8db8	0.100856245
149	0x3d841180	0.0644865
150	0xbdf23254	-0.118260056
151	0xbe872f50	-0.26403284
152	0x3e9b2343	0.3030034
153	0x3e4ff616	0.20308718
154	0x3e4f8886	0.20266923
155	0x3e09aff2	0.13446024
156	0xbe4a1440	-0.19734287
157	0x3d2217f8	0.03957364
158	0x3e70549e	0.23469779
159	0x3e2b27fa	0.16714469
160	0xbe0bd221	-0.13654377
161	0xbc8c72d0	-0.01714459
162	0x3db98470	0.090584636
163	0xbdc429e8	-0.095783055
164	0x3bad5dc0	0.005290717
165	0x3e820921	0.2539759
166	0xbd9d1db2	-0.076716796
167	0xbd604870	-0.05475658
168	0x3e207b12	0.15671948
169	0x3e7e57ee	0.2483823
170	0xbe13123a	-0.14362422
171	0x3e892e83	0.26793298
172	0x3e7aeff2	0.24505594
173	0x3e3374c2	0.17525008
174	0x3e4d1336	0.2002686
175	0xbe728940	-0.23685169
176	0xbe0e2c6f	-0.13884138
177	0xbe60876c	-0.2192666
178	0xbe842566	-0.25809783
179	0x3e5c0c5a	0.21489087
180	0xbe35fc12	-0.17771938
181	0x3d8bbf24	0.068235666
182	0x3df4bef8	0.11950487
183	0xbe9cc192	-0.30616432
184	0x3e4273ae	0.18989441
185	0x3dfee9bc	0.12446925
186	0xbe66dda8	-0.22545493
187	0xbe4451c0	-0.1917181
188	0x3e8f03cf	0.27932593
189	0xbcf734b0	-0.03017649
190	0x3e98ef3d	0.29870024
191	0x3e83fff3	0.2578121
192	0xbe2f7200	-0.17133331
193	0xbe4520ad	-0.19250746
194	0xbe0536ad	-0.13009138
195	0x3e8bfbd5	0.2734057
196	0xbdd88026	-0.105713174
197	0xbdb0b932	-0.08629073
198	0xbdf63c34	-0.120232016
199	0x3dfcd4f0	0.12345302
200	0x3e97e325	0.29665485
201	0x3dbb8920	0.09157014
202	0x3e1f7f14	0.1557582
203	0x3e03c22a	0.12867036
204	0xbe9af364	-0.30263817
205	0xbe509760	-0.20370245
206	0x3e723f92	0.23657063
207	0x3e3b0ff2	0.18267801
208	0x3dd6f94c	0.10496768
209	0xbe6dbfe8	-0.23217738
210	0x3e98c38d	0.29836693
211	0x3e93c6b5	0.2886254
212	0x3c1eb520	0.009686738
213	0xbd2018b8	-0.039086074
214	0xbe1b40e8	-0.15161479
215	0x3cd51b50	0.026014
216	0xbe296829	-0.1654364
217	0x3dd89a70	0.105763316
218	0x3e8c0c23	0.2735301
219	0x3e99fa41	0.3007374
220	0xbd7e3da0	-0.06207049
221	0x3d256070	0.040375173
222	0xbe07fa24	-0.13279015
223	0xbe064c33	-0.13115005
224	0xbe04fefd	-0.12987895
225	0x3dfcb5ac	0.12339339
226	0x3c8e45f0	0.017367333
227	0xbe744cda	-0.23857442
228	0xbd50eaf0	-0.051005304
229	0x3dfd3708	0.12364012
230	0xbe879e18	-0.26487803
231	0x3df66154	0.120302826
232	0xbe1b5dfe	-0.15172574
233	0xbe28a83d	-0.16470428
234	0x3dc43db4	0.095820814
235	0x3dc9aca8	0.09847385
236	0x3ded2b00	0.11580467
237	0xbe95596d	-0.2916979
238	0x3d815ea4	0.063168794
239	0xbe22a36f	-0.15882657
240	0xbe9934f2	-0.29923207
241	0x3e249ea2	0.16076139
242	0xbd18d180	-0.03730917
243	0xbe89f031	-0.26941064
244	0xbae60b00	-0.0017550886
245	0x3ca89e20	0.020583212
246	0x3a86e700	0.0010292232
247	0x3e4fe586	0.203024
248	0xbe5fb2c2	-0.21845534
249	0xbe921664	-0.28532708
250	0xbe97bdfb	-0.2963713
251	0x3da5bc1c	0.0809252
252	0xbda2c7f2	-0.07948293
253	0xbe5af471	-0.2138231
254	0xbe42e2f6	-0.19031891
255	0xbe75f7ed	-0.24020357

10 f4 [28]
0	0x00000000	0.0
1	0x00000000	0.0
2	0x00000000	0.0
3	0x00000000	0.0
4	0x00000000	0.0
5	0x00000000	0.0
6	0x00000000	0.0
7	0x00000000	0.0
8	0x00000000	0.0
9	0x00000000	0.0
10	0x00000000	0.0
11	0x00000000	0.0
12	0x00000000	0.0
13	0x00000000	0.0
14	0x00000000	0.0
15	0x00000000	0.0
16	0x00000000	0.0
17	0x00000000	0.0
18	0x00000000	0.0
19	0x00000000	0.0
20	0x00000000	0.0
21	0x00000000	0.0
22	0x00000000	0.0
23	0x00000000	0.0
24	0x00000000	0.0
25	0x00000000	0.0
26	0x00000000	0.0
27	0x00000000	0.0
